app/src/main/assets/model.tflite (tflite, 15160 bytes, 5 tensors)

sequential/lstm/Read_2/ReadVariableOp f4 [128]
000000 99 66 e6 3c 91 60 0a 3d 3a 65 39 3d d0 b0 44 3d
       0.028125094 0.0337835 0.045262553 0.048020184
000010 a8 c5 60 3d 16 3b 5d 3d 80 e3 89 38 16 ec 23 3d
       0.054876 0.054011427 6.575044e-05 0.04002007
000020 4d 79 10 3d 0b cb 4b 3d 95 67 ac 3c 11 92 5a 3d
       0.03527193 0.049754184 0.021045486 0.053361956
000030 30 62 0b 3b c1 0c 51 3d ac df 65 3d 08 50 45 3d
       0.002126824 0.051037554 0.056121513 0.048172027
000040 10 b2 ce 3c cc 4b 03 3d 01 dc 58 3d db 26 64 3d
       0.025231391 0.032054707 0.052944187 0.055701118
000050 3b 78 75 3d 30 95 20 3d dc 9e 01 3d 6d fe 6a 3d
       0.059929114 0.039204776 0.03164564 0.057371546
000060 34 23 97 bb f9 da e7 b9 03 bf c8 3c 7f 23 49 3d
       -0.004612351 -0.000442229 0.024505144 0.049106117
000070 ef 1a 4a 3d c8 a3 54 3d 23 ec 64 bb 6d f2 03 3d
       0.049342092 0.051914006 -0.0034930788 0.032213617
000080 cb 78 80 3f 67 c3 85 3f 96 53 86 3f 96 28 86 3f
       1.0036863 1.0450257 1.0494258 1.0481136
000090 cf 83 87 3f 4f 1b 87 3f 76 13 7e 3f 80 2f 86 3f
       1.05871 1.0555209 0.99248445 1.0483246
0000a0 66 14 7f 3f d3 ef 86 3f a9 5a 84 3f 50 da 86 3f
       0.996405 1.0541939 1.0340167 1.0535374
0000b0 0f b3 7c 3f 65 90 86 3f 52 6b 86 3f 6d 75 86 3f
       0.9871072 1.0512816 1.0501502 1.0504586
0000c0 f5 f8 82 3f 13 b0 83 3f 74 65 86 3f d9 4a 87 3f
       1.0232226 1.0288109 1.0499711 1.0569717
0000d0 54 b5 86 3f 04 c2 85 3f 2c c0 82 3f be c0 86 3f
       1.0524087 1.0449834 1.0214896 1.052757
0000e0 59 dc 7d 3f b3 04 7b 3f d9 d4 84 3f 32 ec 86 3f
       0.9916435 0.98054045 1.0377456 1.0540831
0000f0 2e c1 86 3f be be 85 3f 6f 9c 7b 3f 36 ca 7e 3f
       1.0527704 1.0448835 0.98285574 0.995273
000100 0d f9 44 3d 25 ac cf 3c 50 3a 47 3d 15 10 28 bd
       0.048089076 0.02535064 0.048639596 -0.041030962
000110 8a e7 40 bd a4 d5 24 3d ae 10 44 bd c9 a8 37 bd
       -0.047095813 0.040242806 -0.04786747 -0.0448387
000120 e1 06 54 bd 2c 33 44 3d 49 cd 4c 3d 66 c6 2d 3d
       -0.051764373 0.047900364 0.050000463 0.042425536
000130 c1 39 16 bc ba 24 34 3d f0 2d 2c bd 8d ab 28 bd
       -0.009169043 0.043980338 -0.042035997 -0.04117923
000140 6d e5 46 bd 0b 8a 12 bd 78 07 24 bd 44 95 3d bd
       -0.04855864 -0.03577618 -0.040046185 -0.04628493
000150 dc 97 24 3d 11 1e 25 bd 07 50 54 3d 44 89 24 3d
       0.040183887 -0.040311877 0.051834133 0.04016997
000160 f7 43 57 bd 43 9d 47 bd fc d7 43 bd 7a fe 2b bd
       -0.05255505 -0.04873396 -0.0478134 -0.041990735
000170 f7 4d 32 bd f4 c9 4f bd 97 d5 44 3d e8 2e 86 3d
       -0.043531384 -0.050729707 0.048055258 0.065519154
000180 c1 d7 b1 3c 1a 0d 39 3d 9e 6b 76 3d ae 1b 85 3d
       0.021709325 0.04517851 0.060161225 0.0649942
000190 dc 5a 88 3d 02 ef 8f 3d b0 9a ce 3b d8 63 3b 3d
       0.06657955 0.07028009 0.0063050613 0.045749515
0001a0 28 12 52 3d 38 92 73 3d 3e 70 33 3d 32 b7 87 3d
       0.051286846 0.059465617 0.043808214 0.066267386
0001b0 6c dd 45 3a 1f 0e 80 3d 48 83 95 3d 60 05 84 3d
       0.0007547948 0.062526934 0.073004305 0.06446338
0001c0 fd 8f f8 3c b7 27 59 3d c6 7b 91 3d ef 4a 8b 3d
       0.030342096 0.05301639 0.07103686 0.06801402
0001d0 26 96 93 3d 3d d1 65 3d 12 68 35 3d 9b dc 92 3d
       0.07206373 0.05610775 0.044288702 0.071709834
0001e0 cf 98 93 bb cc ef 92 3c 89 68 25 3d f6 d4 82 3d
       -0.0045043 0.01793661 0.040382896 0.06388275
0001f0 ac be 72 3d d9 91 99 3d 2f 30 9b 3c 06 fb 09 3d
       0.05926387 0.07498521 0.018943874 0.03368666

sequential/dense/MatMul f4 [1, 32]
000000 c1 a5 b2 3e 9b c2 3a 3e 67 3d a8 3e 0b 82 83 be
       0.34892085 0.18238299 0.32859346 -0.25685152
000010 47 51 4f be e2 f6 39 3e 8c 27 ba be 53 6b 37 bd
       -0.20245849 0.18160585 -0.36358297 -0.044780087
000020 96 cd af be f9 09 9c 3d 4b 8f ca 3e 1c 9d 3a 3e
       -0.34336537 0.0761909 0.3956245 0.18223995
000030 c0 17 09 be 4d 3d e9 3e 8b 11 26 be f5 d4 19 be
       -0.13387966 0.4555458 -0.1621763 -0.15022643
000040 fe cf be be e9 dd dc be 27 e4 e6 be 27 24 f0 be
       -0.3726806 -0.43138054 -0.4509594 -0.46902582
000050 26 1f e2 3e 23 37 6c be c8 03 af 3e 81 62 01 3f
       0.4416439 -0.23067908 0.34182572 0.5054093
000060 06 c3 10 be f2 23 6a be 4e f1 84 be 1d 61 33 be
       -0.14136896 -0.22865275 -0.2596535 -0.17517515
000070 dc f9 01 bf 24 1b d7 be 18 0d ab 3e 03 b7 13 3e
       -0.5077188 -0.42012894 0.33408427 0.14425282

sequential/lstm/Read_2/ReadVariableOp1 f4 [128]
000000 99 66 e6 3c 91 60 0a 3d 3a 65 39 3d d0 b0 44 3d
       0.028125094 0.0337835 0.045262553 0.048020184
000010 a8 c5 60 3d 16 3b 5d 3d 80 e3 89 38 16 ec 23 3d
       0.054876 0.054011427 6.575044e-05 0.04002007
000020 4d 79 10 3d 0b cb 4b 3d 95 67 ac 3c 11 92 5a 3d
       0.03527193 0.049754184 0.021045486 0.053361956
000030 30 62 0b 3b c1 0c 51 3d ac df 65 3d 08 50 45 3d
       0.002126824 0.051037554 0.056121513 0.048172027
000040 10 b2 ce 3c cc 4b 03 3d 01 dc 58 3d db 26 64 3d
       0.025231391 0.032054707 0.052944187 0.055701118
000050 3b 78 75 3d 30 95 20 3d dc 9e 01 3d 6d fe 6a 3d
       0.059929114 0.039204776 0.03164564 0.057371546
000060 34 23 97 bb f9 da e7 b9 03 bf c8 3c 7f 23 49 3d
       -0.004612351 -0.000442229 0.024505144 0.049106117
000070 ef 1a 4a 3d c8 a3 54 3d 23 ec 64 bb 6d f2 03 3d
       0.049342092 0.051914006 -0.0034930788 0.032213617
000080 cb 78 80 3f 67 c3 85 3f 96 53 86 3f 96 28 86 3f
       1.0036863 1.0450257 1.0494258 1.0481136
000090 cf 83 87 3f 4f 1b 87 3f 76 13 7e 3f 80 2f 86 3f
       1.05871 1.0555209 0.99248445 1.0483246
0000a0 66 14 7f 3f d3 ef 86 3f a9 5a 84 3f 50 da 86 3f
       0.996405 1.0541939 1.0340167 1.0535374
0000b0 0f b3 7c 3f 65 90 86 3f 52 6b 86 3f 6d 75 86 3f
       0.9871072 1.0512816 1.0501502 1.0504586
0000c0 f5 f8 82 3f 13 b0 83 3f 74 65 86 3f d9 4a 87 3f
       1.0232226 1.0288109 1.0499711 1.0569717
0000d0 54 b5 86 3f 04 c2 85 3f 2c c0 82 3f be c0 86 3f
       1.0524087 1.0449834 1.0214896 1.052757
0000e0 59 dc 7d 3f b3 04 7b 3f d9 d4 84 3f 32 ec 86 3f
       0.9916435 0.98054045 1.0377456 1.0540831
0000f0 2e c1 86 3f be be 85 3f 6f 9c 7b 3f 36 ca 7e 3f
       1.0527704 1.0448835 0.98285574 0.995273
000100 0d f9 44 3d 25 ac cf 3c 50 3a 47 3d 15 10 28 bd
       0.048089076 0.02535064 0.048639596 -0.041030962
000110 8a e7 40 bd a4 d5 24 3d ae 10 44 bd c9 a8 37 bd
       -0.047095813 0.040242806 -0.04786747 -0.0448387
000120 e1 06 54 bd 2c 33 44 3d 49 cd 4c 3d 66 c6 2d 3d
       -0.051764373 0.047900364 0.050000463 0.042425536
000130 c1 39 16 bc ba 24 34 3d f0 2d 2c bd 8d ab 28 bd
       -0.009169043 0.043980338 -0.042035997 -0.04117923
000140 6d e5 46 bd 0b 8a 12 bd 78 07 24 bd 44 95 3d bd
       -0.04855864 -0.03577618 -0.040046185 -0.04628493
000150 dc 97 24 3d 11 1e 25 bd 07 50 54 3d 44 89 24 3d
       0.040183887 -0.040311877 0.051834133 0.04016997
000160 f7 43 57 bd 43 9d 47 bd fc d7 43 bd 7a fe 2b bd
       -0.05255505 -0.04873396 -0.0478134 -0.041990735
000170 f7 4d 32 bd f4 c9 4f bd 97 d5 44 3d e8 2e 86 3d
       -0.043531384 -0.050729707 0.048055258 0.065519154
000180 c1 d7 b1 3c 1a 0d 39 3d 9e 6b 76 3d ae 1b 85 3d
       0.021709325 0.04517851 0.060161225 0.0649942
000190 dc 5a 88 3d 02 ef 8f 3d b0 9a ce 3b d8 63 3b 3d
       0.06657955 0.07028009 0.0063050613 0.045749515
0001a0 28 12 52 3d 38 92 73 3d 3e 70 33 3d 32 b7 87 3d
       0.051286846 0.059465617 0.043808214 0.066267386
0001b0 6c dd 45 3a 1f 0e 80 3d 48 83 95 3d 60 05 84 3d
       0.0007547948 0.062526934 0.073004305 0.06446338
0001c0 fd 8f f8 3c b7 27 59 3d c6 7b 91 3d ef 4a 8b 3d
       0.030342096 0.05301639 0.07103686 0.06801402
0001d0 26 96 93 3d 3d d1 65 3d 12 68 35 3d 9b dc 92 3d
       0.07206373 0.05610775 0.044288702 0.071709834
0001e0 cf 98 93 bb cc ef 92 3c 89 68 25 3d f6 d4 82 3d
       -0.0045043 0.01793661 0.040382896 0.06388275
0001f0 ac be 72 3d d9 91 99 3d 2f 30 9b 3c 06 fb 09 3d
       0.05926387 0.07498521 0.018943874 0.03368666

while/MatMul f4 [128, 1]
000000 1c 90 b8 3d 24 4b 03 be 6b a4 4f 3e 53 ad 82 3e
       0.09011862 -0.12821633 0.20277564 0.2552286
000010 67 73 ac 3d 45 46 88 3e a7 23 73 3d 87 d0 b7 bc
       0.08420449 0.2661611 0.059360173 -0.0224383
000020 45 c1 59 bd 5e b1 3d 3e bc a2 28 3e 28 f3 8c 3e
       -0.05316283 0.18524691 0.16468328 0.27529263
000030 43 4a 05 3e b3 e9 70 3e cb 3e 3a 3e 22 23 df 3d
       0.1301661 0.23526649 0.18188016 0.10895373
000040 8b 54 af 3c f5 0b 92 3e 23 2d a1 3d df 83 59 3d
       0.021402618 0.28524747 0.07869937 0.053104278
000050 ee 42 c6 bd 5c 19 58 3d 73 4a c0 bd 69 ed 53 3d
       -0.096807346 0.05275856 -0.093892 0.051740084
000060 cb 9c 41 3d 6b bf d9 bd c8 4a 4d 3e b5 1f 1d 3e
       0.04726867 -0.10632213 0.20048058 0.15344127
000070 34 d6 20 3e 94 71 9d 3d b5 9b 54 3e 74 b5 4c bd
       0.15706712 0.07687679 0.20762523 -0.049977735
000080 a1 af 15 bd 15 87 9f 3d b5 cb 3a 3e 16 24 39 3e
       -0.036544446 0.07789437 0.1824177 0.18080172
000090 3c 45 6e 3d fe bf a6 bd a6 6b 13 3b eb 9b b7 3b
       0.058171496 -0.08142088 0.0022494583 0.0056033037
0000a0 f9 a6 fa 3d 1c 45 95 3e 45 a1 00 3e 03 16 27 3c
       0.12238879 0.2915429 0.1256152 0.010198119
0000b0 d1 51 e8 3d 87 35 38 3d 59 77 6c 3e 4e bc 83 bc
       0.1134373 0.044972923 0.23092403 -0.016081002
0000c0 1e 2b 6c 3c 5c 38 a5 bc fb f8 a9 bd 37 b2 49 3d
       0.014414577 -0.020168476 -0.082994424 0.049242225
0000d0 d3 fe ae 3d a3 66 52 3e 90 db 48 3e 78 c7 72 3d
       0.085446976 0.20546965 0.19615006 0.05927226
0000e0 e3 2d 9c bd b7 53 86 3e 12 52 5e bd 94 3d 61 bd
       -0.0762594 0.26235744 -0.054277487 -0.054990366
0000f0 4d f7 36 3e b5 95 50 3e aa c4 a7 3d 25 7e ad 3e
       0.17867775 0.20369609 0.081918076 0.33885303
000100 a0 f3 38 be 99 80 4b 3e 66 5d b4 3c e6 ae 82 be
       -0.18061686 0.19873275 0.022017192 -0.25524062
000110 84 2d 05 be 1a c2 8a 3e c6 53 a2 3c 53 b7 85 bd
       -0.13005644 0.27101213 0.019815337 -0.06529107
000120 75 00 e4 3d 02 a9 84 3d b1 61 a6 3d 69 ea 88 3e
       0.111329 0.06477548 0.08124102 0.2674134
000130 89 7e 30 3e bc 17 4f 3e ad ea 77 be 77 85 75 be
       0.1723577 0.20223898 -0.24210615 -0.23976694
000140 4d 58 9e 3d 5a 0a c2 3d 80 5d 6a be d1 db e9 bd
       0.07731686 0.09474631 -0.2288723 -0.1141888
000150 44 54 67 3e 49 21 6f be b9 68 0c bd d5 79 8d 3e
       0.22590739 -0.23352541 -0.03427956 0.27632013
000160 49 37 aa 3d 65 22 14 3d 3f 56 14 bc 92 09 2f be
       0.08311326 0.036165614 -0.009053766 -0.17093495
000170 b4 ec d2 bd 7d ac 46 bd 14 bf 12 be 75 19 0e be
       -0.10299054 -0.04850434 -0.14330703 -0.13876899
000180 7c b8 99 3e 91 3a b7 bb f2 35 92 3e ec f3 c7 bc
       0.30023563 -0.0055916985 0.28556782 -0.024408303
000190 e7 d6 1e 3e 52 79 79 3e 7e ec 09 3d 7f e4 10 3e
       0.15511666 0.24362686 0.033672802 0.14149664
0001a0 ac 39 eb 3c 4f 06 ec 3d 18 49 8b 3e 2b 94 ea 3a
       0.028714024 0.11524641 0.27204204 0.0017896941
0001b0 1b 40 4f be 0c f0 57 3e 3a 62 0c bc d6 99 9c 3d
       -0.20239298 0.21087664 -0.008568341 0.076465294
0001c0 c9 49 23 3e 36 ed b2 3e a3 2a 00 3d fe 1e 73 3c
       0.15946116 0.34946603 0.03129066 0.014838932
0001d0 7f ff 91 bd 85 f3 63 3e 8b b9 a4 3b 44 8f ae 3e
       -0.0712881 0.22260864 0.0050270013 0.34093678
0001e0 06 3f 4a 3e e2 58 19 3d 39 06 6a 3e 46 89 a4 bc
       0.19750604 0.03743828 0.22853936 -0.020084988
0001f0 f5 5c 8e 3e ba 8e 74 3d 60 31 6d bc ec ac af 3e
       0.27805296 0.059706427 -0.014477104 0.34311616

while/MatMul_11 i1 [128, 32] scale=0.0032368868 zero_point=0
000000 25 20 f1 e0 1b 04 d9 0a cd 3f fe 56 2d e8 15 f9
       0.11976481 0.10358038 -0.048553303 -0.10358038 0.08739594 0.012947547 -0.12623858 0.03236887 -0.16508123 0.20392387 -0.0064737736 0.27837226 0.14565991 -0.07768528 0.06797462 -0.022658208
000010 bb e5 cf 06 07 00 07 1f e1 26 f6 23 25 00 2f 0b
       -0.22334519 -0.08739594 -0.15860745 0.01942132 0.022658208 0.0 0.022658208 0.10034349 -0.10034349 0.1230017 -0.03236887 0.11329104 0.11976481 0.0 0.15213367 0.035605755
000020 01 f3 3f d3 ed e1 b3 ea f9 28 f9 1b 2c 1b 06 e6
       0.0032368868 -0.042079527 0.20392387 -0.14565991 -0.06150085 -0.10034349 -0.24924028 -0.07121151 -0.022658208 0.12947547 -0.022658208 0.08739594 0.14242302 0.08739594 0.01942132 -0.084159054
000030 c8 ce c4 ce 33 bf 3c 04 cf c0 b5 0d f1 d0 18 2d
       -0.18126567 -0.16184434 -0.19421321 -0.16184434 0.16508123 -0.21039765 0.19421321 0.012947547 -0.15860745 -0.20716076 -0.24276651 0.042079527 -0.048553303 -0.15537056 0.07768528 0.14565991
000040 e2 17 36 e7 f3 fe 0d e4 2a 44 d9 22 10 07 ed b4
       -0.097106606 0.0744484 0.17479189 -0.08092217 -0.042079527 -0.0064737736 0.042079527 -0.09063283 0.13594924 0.2201083 -0.12623858 0.11005415 0.05179019 0.022658208 -0.06150085 -0.2460034
000050 42 ed de e8 25 e5 2d 28 00 fb 20 fc ef e9 c5 e7
       0.21363454 -0.06150085 -0.11005415 -0.07768528 0.11976481 -0.08739594 0.14565991 0.12947547 0.0 -0.016184434 0.10358038 -0.012947547 -0.055027075 -0.0744484 -0.19097632 -0.08092217
000060 b0 1f fe e7 f6 0b 0d f8 0b 30 f8 26 35 fe f8 08
       -0.25895095 0.10034349 -0.0064737736 -0.08092217 -0.03236887 0.035605755 0.042079527 -0.025895094 0.035605755 0.15537056 -0.025895094 0.1230017 0.171555 -0.0064737736 -0.025895094 0.025895094
000070 fe f6 06 b8 40 fa e9 34 04 15 db 3b e4 fa cd ea
       -0.0064737736 -0.03236887 0.01942132 -0.23305584 0.20716076 -0.01942132 -0.0744484 0.16831811 0.012947547 0.06797462 -0.11976481 0.19097632 -0.09063283 -0.01942132 -0.16508123 -0.07121151
000080 ec 22 2d dd 0e 25 1d e8 30 1c 29 2d 02 3b d5 ec
       -0.06473774 0.11005415 0.14565991 -0.11329104 0.045316417 0.11976481 0.093869716 -0.07768528 0.15537056 0.09063283 0.13271236 0.14565991 0.0064737736 0.19097632 -0.13918613 -0.06473774
000090 03 fa 04 fd 0b df 4d ef 14 f2 df da ed 01 09 26
       0.00971066 -0.01942132 0.012947547 -0.00971066 0.035605755 -0.10681727 0.24924028 -0.055027075 0.06473774 -0.045316417 -0.10681727 -0.1230017 -0.06150085 0.0032368868 0.02913198 0.1230017
0000a0 07 47 36 e7 e7 02 05 f1 d3 0e 38 1c 1c f3 bb e2
       0.022658208 0.22981897 0.17479189 -0.08092217 -0.08092217 0.0064737736 0.016184434 -0.048553303 -0.14565991 0.045316417 0.18126567 0.09063283 0.09063283 -0.042079527 -0.22334519 -0.097106606
0000b0 c3 f4 f7 d8 0b f1 0d 03 f7 ef bb 04 af d2 08 2d
       -0.1974501 -0.03884264 -0.02913198 -0.12947547 0.035605755 -0.048553303 0.042079527 0.00971066 -0.02913198 -0.055027075 -0.22334519 0.012947547 -0.26218784 -0.1488968 0.025895094 0.14565991
0000c0 13 21 25 d8 0b 0f 10 06 e9 da 26 0c 43 fc f1 fb
       0.06150085 0.10681727 0.11976481 -0.12947547 0.035605755 0.048553303 0.05179019 0.01942132 -0.0744484 -0.1230017 0.1230017 0.03884264 0.21687141 -0.012947547 -0.048553303 -0.016184434
0000d0 c8 dc e9 06 2e 12 18 db df b8 24 f3 05 0c 04 23
       -0.18126567 -0.11652792 -0.0744484 0.01942132 0.1488968 0.05826396 0.07768528 -0.11976481 -0.10681727 -0.23305584 0.11652792 -0.042079527 0.016184434 0.03884264 0.012947547 0.11329104
0000e0 d6 20 20 d0 0d 06 06 e3 44 33 40 10 29 ee c0 ba
       -0.13594924 0.10358038 0.10358038 -0.15537056 0.042079527 0.01942132 0.01942132 -0.093869716 0.2201083 0.16508123 0.20716076 0.05179019 0.13271236 -0.05826396 -0.20716076 -0.22658208
0000f0 28 02 f3 01 18 c9 e3 03 05 05 07 f1 09 e2 da f5
       0.12947547 0.0064737736 -0.042079527 0.0032368868 0.07768528 -0.17802878 -0.093869716 0.00971066 0.016184434 0.016184434 0.022658208 -0.048553303 0.02913198 -0.097106606 -0.1230017 -0.035605755
